…
    gen_series_legodnn_models(deadline=100, model_size_search_range=[model_size_min, model_size_max], target_model_num=100, optimal_runtime=optimal_runtime, descendant_models_save_path=descendant_models_dir_path, device=device)
2024-10-17 01:35:28,924 - log.py[40] - DEBUG: entry file content: ---------------------------------
2024-10-17 01:35:36,438 - block_extractor.py[28] - INFO: save pruned block block-0 (sparsity 0.0) in results/legodnn/image_classification/mobilenetv2_w2_cifar100_0-125/compressed/block-0-0.pt
2024-10-17 01:35:36,438 - block_extractor.py[29] - DEBUG: LegoDNNBlock(
  (features): ModuleDict(
    (0): ModuleDict(
      (0): Conv2d(3, 64, kernel_size=(3, 3), stride=(1, 1), padding=(1, 1), bias=False)
      (1): BatchNorm2d(64, eps=1e-05, momentum=0.1, affine=True, track_running_stats=True)
      (2): ReLU6()
    )
    (1): ModuleDict(
      (conv): ModuleDict(
        (0): Conv2d(64, 64, kernel_size=(3, 3), stride=(1, 1), padding=(1, 1), groups=64, bias=False)
        (1): BatchNorm2d(64, eps=1e-05, momentum=0.1, affine=True, track_running_stats=True)
        (2): ReLU6()
        (3): Conv2d(64, 32, kernel_size=(1, 1), stride=(1, 1), bias=False)
        (4): BatchNorm2d(32, eps=1e-05, momentum=0.1, affine=True, track_running_stats=True)
      )
    )
    (2): ModuleDict(
      (conv): ModuleDict(
        (0): Conv2d(32, 192, kernel_size=(1, 1), stride=(1, 1), bias=False)
        (1): BatchNorm2d(192, eps=1e-05, momentum=0.1, affine=True, track_running_stats=True)
        (2): ReLU6()
        (3): Conv2d(192, 192, kernel_size=(3, 3), stride=(1, 1), padding=(1, 1), groups=192, bias=False)
        (4): BatchNorm2d(192, eps=1e-05, momentum=0.1, affine=True, track_running_stats=True)
        (5): ReLU6()
        (6): Conv2d(192, 48, kernel_size=(1, 1), stride=(1, 1), bias=False)
      )
    )
  )
)
2024-10-17 01:35:37,034 - block_extractor.py[28] - INFO: save pruned block block-0 (sparsity 0.2) in results/legodnn/image_classification/mobilenetv2_w2_cifar100_0-125/compressed/block-0-2.pt
2024-10-17 01:35:37,034 - block_extractor.py[29] - DEBUG: LegoDNNBlock(
  (features): ModuleDict(
    (0): ModuleDict(
      (0): Conv2d(3, 48, kernel_size=(3, 3), stride=(1, 1), padding=(1, 1), bias=False)
      (1): BatchNorm2d(48, eps=1e-05, momentum=0.1, affine=True, track_running_stats=True)
      (2): ReLU6()
    )
    (1): ModuleDict(
      (conv): ModuleDict(
        (0): Conv2d(48, 48, kernel_size=(3, 3), stride=(1, 1), padding=(1, 1), groups=48, bias=False)
        (1): BatchNorm2d(48, eps=1e-05, momentum=0.1, affine=True, track_running_stats=True)
        (2): ReLU6()
        (3): Conv2d(48, 26, kernel_size=(1, 1), stride=(1, 1), bias=False)
        (4): BatchNorm2d(26, eps=1e-05, momentum=0.1, affine=True, track_running_stats=True)
      )
    )
    (2): ModuleDict(
      (conv): ModuleDict(
        (0): Conv2d(26, 144, kernel_size=(1, 1), stride=(1, 1), bias=False)
        (1): BatchNorm2d(144, eps=1e-05, momentum=0.1, affine=True, track_running_stats=True)
        (2): ReLU6()
        (3): Conv2d(144, 144, kernel_size=(3, 3), stride=(1, 1), padding=(1, 1), groups=144, bias=False)
        (4): BatchNorm2d(144, eps=1e-05, momentum=0.1, affine=True, track_running_stats=True)
        (5): ReLU6()
        (6): Conv2d(144, 48, kernel_size=(1, 1), stride=(1, 1), bias=False)
      )
    )
  )
)
2024-10-17 01:35:37,653 - block_extractor.py[28] - INFO: save pruned block block-0 (sparsity 0.4) in results/legodnn/image_classification/mobilenetv2_w2_cifar100_0-125/compressed/block-0-4.pt
2024-10-17 01:35:37,653 - block_extractor.py[29] - DEBUG: LegoDNNBlock(
  (features): ModuleDict(
    (0): ModuleDict(
      (0): Conv2d(3, 36, kernel_size=(3, 3), stride=(1, 1), padding=(1, 1), bias=False)
      (1): BatchNorm2d(36, eps=1e-05, momentum=0.1, affine=True, track_running_stats=True)
      (2): ReLU6()
    )
    (1): ModuleDict(
      (conv): ModuleDict(
        (0): Conv2d(36, 36, kernel_size=(3, 3), stride=(1, 1), padding=(1, 1), groups=36, bias=False)
        (1): BatchNorm2d(36, eps=1e-05, momentum=0.1, affine=True, track_running_stats=True)
        (2): ReLU6()
        (3): Conv2d(36, 20, kernel_size=(1, 1), stride=(1, 1), bias=False)
        (4): BatchNorm2d(20, eps=1e-05, momentum=0.1, affine=True, track_running_stats=True)
      )
    )
    (2): ModuleDict(
      (conv): ModuleDict(
        (0): Conv2d(20, 100, kernel_size=(1, 1), stride=(1, 1), bias=False)
        (1): BatchNorm2d(100, eps=1e-05, momentum=0.1, affine=True, track_running_stats=True)
        (2): ReLU6()
        (3): Conv2d(100, 100, kernel_size=(3, 3), stride=(1, 1), padding=(1, 1), groups=100, bias=False)
        (4): BatchNorm2d(100, eps=1e-05, momentum=0.1, affine=True, track_running_stats=True)
        (5): ReLU6()
        (6): Conv2d(100, 48, kernel_size=(1, 1), stride=(1, 1), bias=False)
      )
    )
  )
)
2024-10-17 01:35:38,168 - block_extractor.py[28] - INFO: save pruned block block-0 (sparsity 0.6) in results/legodnn/image_classification/mobilenetv2_w2_cifar100_0-125/compressed/block-0-6.pt
2024-10-17 01:35:38,168 - block_extractor.py[29] - DEBUG: LegoDNNBlock(
  (features): ModuleDict(
    (0): ModuleDict(
      (0): Conv2d(3, 24, kernel_size=(3, 3), stride=(1, 1), padding=(1, 1), bias=False)
      (1): BatchNorm2d(24, eps=1e-05, momentum=0.1, affine=True, track_running_stats=True)
      (2): ReLU6()
    )
    (1): ModuleDict(
      (conv): ModuleDict(
        (0): Conv2d(24, 24, kernel_size=(3, 3), stride=(1, 1), padding=(1, 1), groups=24, bias=False)
        (1): BatchNorm2d(24, eps=1e-05, momentum=0.1, affine=True, track_running_stats=True)
        (2): ReLU6()
        (3): Conv2d(24, 13, kernel_size=(1, 1), stride=(1, 1), bias=False)
        (4): BatchNorm2d(13, eps=1e-05, momentum=0.1, affine=True, track_running_stats=True)
      )
    )
    (2): ModuleDict(
      (conv): ModuleDict(
        (0): Conv2d(13, 58, kernel_size=(1, 1), stride=(1, 1), bias=False)
        (1): BatchNorm2d(58, eps=1e-05, momentum=0.1, affine=True, track_running_stats=True)
        (2): ReLU6()
        (3): Conv2d(58, 58, kernel_size=(3, 3), stride=(1, 1), padding=(1, 1), groups=58, bias=False)
        (4): BatchNorm2d(58, eps=1e-05, momentum=0.1, affine=True, track_running_stats=True)
        (5): ReLU6()
        (6): Conv2d(58, 48, kernel_size=(1, 1), stride=(1, 1), bias=False)
      )
    )
  )
)
2024-10-17 01:35:38,688 - block_extractor.py[28] - INFO: save pruned block block-0 (sparsity 0.8) in results/legodnn/image_classification/mobilenetv2_w2_cifar100_0-125/compressed/block-0-8.pt
2024-10-17 01:35:38,688 - block_extractor.py[29] - DEBUG: LegoDNNBlock(
  (features): ModuleDict(
    (0): ModuleDict(
      (0): Conv2d(3, 10, kernel_size=(3, 3), stride=(1, 1), padding=(1, 1), bias=False)
      (1): BatchNorm2d(10, eps=1e-05, momentum=0.1, affine=True, track_running_stats=True)
      (2): ReLU6()
    )
    (1): ModuleDict(
      (conv): ModuleDict(
        (0): Conv2d(10, 10, kernel_size=(3, 3), stride=(1, 1), padding=(1, 1), groups=10, bias=False)
        (1): BatchNorm2d(10, eps=1e-05, momentum=0.1, affine=True, track_running_stats=True)
        (2): ReLU6()
        (3): Conv2d(10, 7, kernel_size=(1, 1), stride=(1, 1), bias=False)
        (4): BatchNorm2d(7, eps=1e-05, momentum=0.1, affine=True, track_running_stats=True)
      )
    )
    (2): ModuleDict(
      (conv): ModuleDict(
        (0): Conv2d(7, 27, kernel_size=(1, 1), stride=(1, 1), bias=False)
        (1): BatchNorm2d(27, eps=1e-05, momentum=0.1, affine=True, track_running_stats=True)
        (2): ReLU6()
        (3): Conv2d(27, 27, kernel_size=(3, 3), stride=(1, 1), padding=(1, 1), groups=27, bias=False)
        (4): BatchNorm2d(27, eps=1e-05, momentum=0.1, affine=True, track_running_stats=True)
        (5): ReLU6()
        (6): Conv2d(27, 48, kernel_size=(1, 1), stride=(1, 1), bias=False)
      )
    )
  )
)
2024-10-17 01:35:38,752 - block_extractor.py[28] - INFO: save pruned block block-1 (sparsity 0.0) in results/legodnn/image_classification/mobilenetv2_w2_cifar100_0-125/compressed/block-1-0.pt
2024-10-17 01:35:38,752 - block_extractor.py[29] - DEBUG: LegoDNNBlock(
  (features): ModuleDict(
    (2): ModuleDict(
      (conv): ModuleDict(
        (7): BatchNorm2d(48, eps=1e-05, momentum=0.1, affine=True, track_running_stats=True)
      )
    )
    (3): ModuleDict(
      (conv): ModuleDict(
        (0): Conv2d(48, 288, kernel_size=(1, 1), stride=(1, 1), bias=False)
        (1): BatchNorm2d(288, eps=1e-05, momentum=0.1, affine=True, track_running_stats=True)
        (2): ReLU6()
        (3): Conv2d(288, 288, kernel_size=(3, 3), stride=(1, 1), padding=(1, 1), groups=288, bias=False)
        (4): BatchNorm2d(288, eps=1e-05, momentum=0.1, affine=True, track_running_stats=True)
        (5): ReLU6()
        (6): Conv2d(288, 48, kernel_size=(1, 1), stride=(1, 1), bias=False)
        (7): BatchNorm2d(48, eps=1e-05, momentum=0.1, affine=True, track_running_stats=True)
      )
    )
    (4): ModuleDict(
      (conv): ModuleDict(
        (0): Conv2d(48, 288, kernel_size=(1, 1), stride=(1, 1), bias=False)
        (1): BatchNorm2d(288, eps=1e-05, momentum=0.1, affine=True, track_running_stats=True)
        (2): ReLU6()
        (3): Conv2d(288, 288, kernel_size=(3, 3), stride=(2, 2), padding=(1, 1), groups=288, bias=False)
        (4): BatchNorm2d(288, eps=1e-05, momentum=0.1, affine=True, track_running_stats=True)
        (5): ReLU6()
        (6): Conv2d(288, 64, kernel_size=(1, 1), stride=(1, 1), bias=False)
      )
    )
  )
)
2024-10-17 01:35:40,060 - block_extractor.py[28] - INFO: save pruned block block-1 (sparsity 0.2) in results/legodnn/image_classification/mobilenetv2_w2_cifar100_0-125/compressed/block-1-2.pt
2024-10-17 01:35:40,060 - block_extractor.py[29] - DEBUG: LegoDNNBlock(
  (features): ModuleDict(
    (2): ModuleDict(
      (conv): ModuleDict(
        (7): BatchNorm2d(48, eps=1e-05, momentum=0.1, affine=True, track_running_stats=True)
      )
    )
    (3): ModuleDict(
      (conv): ModuleDict(
        (0): Conv2d(48, 218, kernel_size=(1, 1), stride=(1, 1), bias=False)
        (1): BatchNorm2d(218, eps=1e-05, momentum=0.1, affine=True, track_running_stats=True)
        (2): ReLU6()
        (3): Conv2d(218, 218, kernel_size=(3, 3), stride=(1, 1), padding=(1, 1), groups=218, bias=False)
        (4): BatchNorm2d(218, eps=1e-05, momentum=0.1, affine=True, track_running_stats=True)
        (5): ReLU6()
        (6): Conv2d(218, 48, kernel_size=(1, 1), stride=(1, 1), bias=False)
        (7): BatchNorm2d(48, eps=1e-05, momentum=0.1, affine=True, track_running_stats=True)
      )
    )
    (4): ModuleDict(
      (conv): ModuleDict(
        (0): Conv2d(48, 205, kernel_size=(1, 1), stride=(1, 1), bias=False)
        (1): BatchNorm2d(205, eps=1e-05, momentum=0.1, affine=True, track_running_stats=True)
        (2): ReLU6()
        (3): Conv2d(205, 205, kernel_size=(3, 3), stride=(2, 2), padding=(1, 1), groups=205, bias=False)
        (4): BatchNorm2d(205, eps=1e-05, momentum=0.1, affine=True, track_running_stats=True)
        (5): ReLU6()
        (6): Conv2d(205, 64, kernel_size=(1, 1), stride=(1, 1), bias=False)
      )
    )
  )
)
2024-10-17 01:35:40,678 - block_extractor.py[28] - INFO: save pruned block block-1 (sparsity 0.4) in results/legodnn/image_classification/mobilenetv2_w2_cifar100_0-125/compressed/block-1-4.pt
2024-10-17 01:35:40,678 - block_extractor.py[29] - DEBUG: LegoDNNBlock(
  (features): ModuleDict(
    (2): ModuleDict(
      (conv): ModuleDict(
        (7): BatchNorm2d(48, eps=1e-05, momentum=0.1, affine=True, track_running_stats=True)
      )
    )
    (3): ModuleDict(
      (conv): ModuleDict(
        (0): Conv2d(48, 156, kernel_size=(1, 1), stride=(1, 1), bias=False)
        (1): BatchNorm2d(156, eps=1e-05, momentum=0.1, affine=True, track_running_stats=True)
        (2): ReLU6()
        (3): Conv2d(156, 156, kernel_size=(3, 3), stride=(1, 1), padding=(1, 1), groups=156, bias=False)
        (4): BatchNorm2d(156, eps=1e-05, momentum=0.1, affine=True, track_running_stats=True)
        (5): ReLU6()
        (6): Conv2d(156, 48, kernel_size=(1, 1), stride=(1, 1), bias=False)
        (7): BatchNorm2d(48, eps=1e-05, momentum=0.1, affine=True, track_running_stats=True)
      )
    )
    (4): ModuleDict(
      (conv): ModuleDict(
        (0): Conv2d(48, 125, kernel_size=(1, 1), stride=(1, 1), bias=False)
        (1): BatchNorm2d(125, eps=1e-05, momentum=0.1, affine=True, track_running_stats=True)
        (2): ReLU6()
        (3): Conv2d(125, 125, kernel_size=(3, 3), stride=(2, 2), padding=(1, 1), groups=125, bias=False)
        (4): BatchNorm2d(125, eps=1e-05, momentum=0.1, affine=True, track_running_stats=True)
        (5): ReLU6()
        (6): Conv2d(125, 64, kernel_size=(1, 1), stride=(1, 1), bias=False)
      )
    )
  )
)
2024-10-17 01:35:41,277 - block_extractor.py[28] - INFO: save pruned block block-1 (sparsity 0.6) in results/legodnn/image_classification/mobilenetv2_w2_cifar100_0-125/compressed/block-1-6.pt
2024-10-17 01:35:41,277 - block_extractor.py[29] - DEBUG: LegoDNNBlock(
  (features): ModuleDict(
    (2): ModuleDict(
      (conv): ModuleDict(
        (7): BatchNorm2d(48, eps=1e-05, momentum=0.1, affine=True, track_running_stats=True)
      )
    )
    (3): ModuleDict(
      (conv): ModuleDict(
        (0): Conv2d(48, 98, kernel_size=(1, 1), stride=(1, 1), bias=False)
        (1): BatchNorm2d(98, eps=1e-05, momentum=0.1, affine=True, track_running_stats=True)
        (2): ReLU6()
        (3): Conv2d(98, 98, kernel_size=(3, 3), stride=(1, 1), padding=(1, 1), groups=98, bias=False)
        (4): BatchNorm2d(98, eps=1e-05, momentum=0.1, affine=True, track_running_stats=True)
        (5): ReLU6()
        (6): Conv2d(98, 48, kernel_size=(1, 1), stride=(1, 1), bias=False)
        (7): BatchNorm2d(48, eps=1e-05, momentum=0.1, affine=True, track_running_stats=True)
      )
    )
    (4): ModuleDict(
      (conv): ModuleDict(
        (0): Conv2d(48, 61, kernel_size=(1, 1), stride=(1, 1), bias=False)
        (1): BatchNorm2d(61, eps=1e-05, momentum=0.1, affine=True, track_running_stats=True)
        (2): ReLU6()
        (3): Conv2d(61, 61, kernel_size=(3, 3), stride=(2, 2), padding=(1, 1), groups=61, bias=False)
        (4): BatchNorm2d(61, eps=1e-05, momentum=0.1, affine=True, track_running_stats=True)
        (5): ReLU6()
        (6): Conv2d(61, 64, kernel_size=(1, 1), stride=(1, 1), bias=False)
      )
    )
  )
)
2024-10-17 01:35:41,843 - block_extractor.py[28] - INFO: save pruned block block-1 (sparsity 0.8) in results/legodnn/image_classification/mobilenetv2_w2_cifar100_0-125/compressed/block-1-8.pt
2024-10-17 01:35:41,843 - block_extractor.py[29] - DEBUG: LegoDNNBlock(
  (features): ModuleDict(
    (2): ModuleDict(
      (conv): ModuleDict(
        (7): BatchNorm2d(48, eps=1e-05, momentum=0.1, affine=True, track_running_stats=True)
      )
    )
    (3): ModuleDict(
      (conv): ModuleDict(
        (0): Conv2d(48, 44, kernel_size=(1, 1), stride=(1, 1), bias=False)
        (1): BatchNorm2d(44, eps=1e-05, momentum=0.1, affine=True, track_running_stats=True)
        (2): ReLU6()
        (3): Conv2d(44, 44, kernel_size=(3, 3), stride=(1, 1), padding=(1, 1), groups=44, bias=False)
        (4): BatchNorm2d(44, eps=1e-05, momentum=0.1, affine=True, track_running_stats=True)
        (5): ReLU6()
        (6): Conv2d(44, 48, kernel_size=(1, 1), stride=(1, 1), bias=False)
        (7): BatchNorm2d(48, eps=1e-05, momentum=0.1, affine=True, track_running_stats=True)
      )
    )
    (4): ModuleDict(
      (conv): ModuleDict(
        (0): Conv2d(48, 25, kernel_size=(1, 1), stride=(1, 1), bias=False)
        (1): BatchNorm2d(25, eps=1e-05, momentum=0.1, affine=True, track_running_stats=True)
        (2): ReLU6()
        (3): Conv2d(25, 25, kernel_size=(3, 3), stride=(2, 2), padding=(1, 1), groups=25, bias=False)
        (4): BatchNorm2d(25, eps=1e-05, momentum=0.1, affine=True, track_running_stats=True)
        (5): ReLU6()
        (6): Conv2d(25, 64, kernel_size=(1, 1), stride=(1, 1), bias=False)
      )
    )
  )
)
2024-10-17 01:35:41,974 - block_extractor.py[28] - INFO: save pruned block block-2 (sparsity 0.0) in results/legodnn/image_classification/mobilenetv2_w2_cifar100_0-125/compressed/block-2-0.pt
2024-10-17 01:35:41,974 - block_extractor.py[29] - DEBUG: LegoDNNBlock(
  (features): ModuleDict(
    (4): ModuleDict(
      (conv): ModuleDict(
        (7): BatchNorm2d(64, eps=1e-05, momentum=0.1, affine=True, track_running_stats=True)
      )
    )
    (5): ModuleDict(
      (conv): ModuleDict(
        (0): Conv2d(64, 384, kernel_size=(1, 1), stride=(1, 1), bias=False)
        (1): BatchNorm2d(384, eps=1e-05, momentum=0.1, affine=True, track_running_stats=True)
        (2): ReLU6()
        (3): Conv2d(384, 384, kernel_size=(3, 3), stride=(1, 1), padding=(1, 1), groups=384, bias=False)
        (4): BatchNorm2d(384, eps=1e-05, momentum=0.1, affine=True, track_running_stats=True)
        (5): ReLU6()
        (6): Conv2d(384, 64, kernel_size=(1, 1), stride=(1, 1), bias=False)
        (7): BatchNorm2d(64, eps=1e-05, momentum=0.1, affine=True, track_running_stats=True)
      )
    )
    (6): ModuleDict(
      (conv): ModuleDict(
        (0): Conv2d(64, 384, kernel_size=(1, 1), stride=(1, 1), bias=False)
        (1): BatchNorm2d(384, eps=1e-05, momentum=0.1, affine=True, track_running_stats=True)
        (2): ReLU6()
        (3): Conv2d(384, 384, kernel_size=(3, 3), stride=(1, 1), padding=(1, 1), groups=384, bias=False)
        (4): BatchNorm2d(384, eps=1e-05, momentum=0.1, affine=True, track_running_stats=True)
        (5): ReLU6()
        (6): Conv2d(384, 64, kernel_size=(1, 1), stride=(1, 1), bias=False)
        (7): BatchNorm2d(64, eps=1e-05, momentum=0.1, affine=True, track_running_stats=True)
      )
    )
  )
)
2024-10-17 01:35:42,670 - block_extractor.py[28] - INFO: save pruned block block-2 (sparsity 0.2) in results/legodnn/image_classification/mobilenetv2_w2_cifar100_0-125/compressed/block-2-2.pt
2024-10-17 01:35:42,670 - block_extractor.py[29] - DEBUG: LegoDNNBlock(
  (features): ModuleDict(
    (4): ModuleDict(
      (conv): ModuleDict(
        (7): BatchNorm2d(64, eps=1e-05, momentum=0.1, affine=True, track_running_stats=True)
      )
    )
    (5): ModuleDict(
      (conv): ModuleDict(
        (0): Conv2d(64, 288, kernel_size=(1, 1), stride=(1, 1), bias=False)
        (1): BatchNorm2d(288, eps=1e-05, momentum=0.1, affine=True, track_running_stats=True)
        (2): ReLU6()
        (3): Conv2d(288, 288, kernel_size=(3, 3), stride=(1, 1), padding=(1, 1), groups=288, bias=False)
        (4): BatchNorm2d(288, eps=1e-05, momentum=0.1, affine=True, track_running_stats=True)
        (5): ReLU6()
        (6): Conv2d(288, 64, kernel_size=(1, 1), stride=(1, 1), bias=False)
        (7): BatchNorm2d(64, eps=1e-05, momentum=0.1, affine=True, track_running_stats=True)
      )
    )
    (6): ModuleDict(
      (conv): ModuleDict(
        (0): Conv2d(64, 289, kernel_size=(1, 1), stride=(1, 1), bias=False)
        (1): BatchNorm2d(289, eps=1e-05, momentum=0.1, affine=True, track_running_stats=True)
        (2): ReLU6()
        (3): Conv2d(289, 289, kernel_size=(3, 3), stride=(1, 1), padding=(1, 1), groups=289, bias=False)
        (4): BatchNorm2d(289, eps=1e-05, momentum=0.1, affine=True, track_running_stats=True)
        (5): ReLU6()
        (6): Conv2d(289, 64, kernel_size=(1, 1), stride=(1, 1), bias=False)
        (7): BatchNorm2d(64, eps=1e-05, momentum=0.1, affine=True, track_running_stats=True)
      )
    )
  )
)
2024-10-17 01:35:43,330 - block_extractor.py[28] - INFO: save pruned block block-2 (sparsity 0.4) in results/legodnn/image_classification/mobilenetv2_w2_cifar100_0-125/compressed/block-2-4.pt
2024-10-17 01:35:43,330 - block_extractor.py[29] - DEBUG: LegoDNNBlock(
  (features): ModuleDict(
    (4): ModuleDict(
      (conv): ModuleDict(
        (7): BatchNorm2d(64, eps=1e-05, momentum=0.1, affine=True, track_running_stats=True)
      )
    )
    (5): ModuleDict(
      (conv): ModuleDict(
        (0): Conv2d(64, 202, kernel_size=(1, 1), stride=(1, 1), bias=False)
        (1): BatchNorm2d(202, eps=1e-05, momentum=0.1, affine=True, track_running_stats=True)
        (2): ReLU6()
        (3): Conv2d(202, 202, kernel_size=(3, 3), stride=(1, 1), padding=(1, 1), groups=202, bias=False)
        (4): BatchNorm2d(202, eps=1e-05, momentum=0.1, affine=True, track_running_stats=True)
        (5): ReLU6()
        (6): Conv2d(202, 64, kernel_size=(1, 1), stride=(1, 1), bias=False)
        (7): BatchNorm2d(64, eps=1e-05, momentum=0.1, affine=True, track_running_stats=True)
      )
    )
    (6): ModuleDict(
      (conv): ModuleDict(
        (0): Conv2d(64, 197, kernel_size=(1, 1), stride=(1, 1), bias=False)
        (1): BatchNorm2d(197, eps=1e-05, momentum=0.1, affine=True, track_running_stats=True)
        (2): ReLU6()
        (3): Conv2d(197, 197, kernel_size=(3, 3), stride=(1, 1), padding=(1, 1), groups=197, bias=False)
        (4): BatchNorm2d(197, eps=1e-05, momentum=0.1, affine=True, track_running_stats=True)
        (5): ReLU6()
        (6): Conv2d(197, 64, kernel_size=(1, 1), stride=(1, 1), bias=False)
        (7): BatchNorm2d(64, eps=1e-05, momentum=0.1, affine=True, track_running_stats=True)
      )
    )
  )
)
2024-10-17 01:35:43,968 - block_extractor.py[28] - INFO: save pruned block block-2 (sparsity 0.6) in results/legodnn/image_classification/mobilenetv2_w2_cifar100_0-125/compressed/block-2-6.pt
2024-10-17 01:35:43,969 - block_extractor.py[29] - DEBUG: LegoDNNBlock(
  (features): ModuleDict(
    (4): ModuleDict(
      (conv): ModuleDict(
        (7): BatchNorm2d(64, eps=1e-05, momentum=0.1, affine=True, track_running_stats=True)
      )
    )
    (5): ModuleDict(
      (conv): ModuleDict(
        (0): Conv2d(64, 133, kernel_size=(1, 1), stride=(1, 1), bias=False)
        (1): BatchNorm2d(133, eps=1e-05, momentum=0.1, affine=True, track_running_stats=True)
        (2): ReLU6()
        (3): Conv2d(133, 133, kernel_size=(3, 3), stride=(1, 1), padding=(1, 1), groups=133, bias=False)
        (4): BatchNorm2d(133, eps=1e-05, momentum=0.1, affine=True, track_running_stats=True)
        (5): ReLU6()
        (6): Conv2d(133, 64, kernel_size=(1, 1), stride=(1, 1), bias=False)
        (7): BatchNorm2d(64, eps=1e-05, momentum=0.1, affine=True, track_running_stats=True)
      )
    )
    (6): ModuleDict(
      (conv): ModuleDict(
        (0): Conv2d(64, 122, kernel_size=(1, 1), stride=(1, 1), bias=False)
        (1): BatchNorm2d(122, eps=1e-05, momentum=0.1, affine=True, track_running_stats=True)
        (2): ReLU6()
        (3): Conv2d(122, 122, kernel_size=(3, 3), stride=(1, 1), padding=(1, 1), groups=122, bias=False)
        (4): BatchNorm2d(122, eps=1e-05, momentum=0.1, affine=True, track_running_stats=True)
        (5): ReLU6()
        (6): Conv2d(122, 64, kernel_size=(1, 1), stride=(1, 1), bias=False)
        (7): BatchNorm2d(64, eps=1e-05, momentum=0.1, affine=True, track_running_stats=True)
      )
    )
  )
)
2024-10-17 01:35:44,571 - block_extractor.py[28] - INFO: save pruned block block-2 (sparsity 0.8) in results/legodnn/image_classification/mobilenetv2_w2_cifar100_0-125/compressed/block-2-8.pt
2024-10-17 01:35:44,571 - block_extractor.py[29] - DEBUG: LegoDNNBlock(
  (features): ModuleDict(
    (4): ModuleDict(
      (conv): ModuleDict(
        (7): BatchNorm2d(64, eps=1e-05, momentum=0.1, affine=True, track_running_stats=True)
      )
    )
    (5): ModuleDict(
      (conv): ModuleDict(
        (0): Conv2d(64, 54, kernel_size=(1, 1), stride=(1, 1), bias=False)
        (1): BatchNorm2d(54, eps=1e-05, momentum=0.1, affine=True, track_running_stats=True)
        (2): ReLU6()
        (3): Conv2d(54, 54, kernel_size=(3, 3), stride=(1, 1), padding=(1, 1), groups=54, bias=False)
        (4): BatchNorm2d(54, eps=1e-05, momentum=0.1, affine=True, track_running_stats=True)
        (5): ReLU6()
        (6): Conv2d(54, 64, kernel_size=(1, 1), stride=(1, 1), bias=False)
        (7): BatchNorm2d(64, eps=1e-05, momentum=0.1, affine=True, track_running_stats=True)
      )
    )
    (6): ModuleDict(
      (conv): ModuleDict(
        (0): Conv2d(64, 48, kernel_size=(1, 1), stride=(1, 1), bias=False)
        (1): BatchNorm2d(48, eps=1e-05, momentum=0.1, affine=True, track_running_stats=True)
        (2): ReLU6()
        (3): Conv2d(48, 48, kernel_size=(3, 3), stride=(1, 1), padding=(1, 1), groups=48, bias=False)
        (4): BatchNorm2d(48, eps=1e-05, momentum=0.1, affine=True, track_running_stats=True)
        (5): ReLU6()
        (6): Conv2d(48, 64, kernel_size=(1, 1), stride=(1, 1), bias=False)
        (7): BatchNorm2d(64, eps=1e-05, momentum=0.1, affine=True, track_running_stats=True)
      )
    )
  )
)
2024-10-17 01:35:44,639 - block_extractor.py[28] - INFO: save pruned block block-3 (sparsity 0.0) in results/legodnn/image_classification/mobilenetv2_w2_cifar100_0-125/compressed/block-3-0.pt
2024-10-17 01:35:44,639 - block_extractor.py[29] - DEBUG: LegoDNNBlock(
  (features): ModuleDict(
    (7): ModuleDict(
      (conv): ModuleDict(
        (0): Conv2d(64, 384, kernel_size=(1, 1), stride=(1, 1), bias=False)
        (1): BatchNorm2d(384, eps=1e-05, momentum=0.1, affine=True, track_running_stats=True)
        (2): ReLU6()
        (3): Conv2d(384, 384, kernel_size=(3, 3), stride=(2, 2), padding=(1, 1), groups=384, bias=False)
        (4): BatchNorm2d(384, eps=1e-05, momentum=0.1, affine=True, track_running_stats=True)
        (5): ReLU6()
        (6): Conv2d(384, 128, kernel_size=(1, 1), stride=(1, 1), bias=False)
        (7): BatchNorm2d(128, eps=1e-05, momentum=0.1, affine=True, track_running_stats=True)
      )
    )
    (8): ModuleDict(
      (conv): ModuleDict(
        (0): Conv2d(128, 768, kernel_size=(1, 1), stride=(1, 1), bias=False)
        (1): BatchNorm2d(768, eps=1e-05, momentum=0.1, affine=True, track_running_stats=True)
        (2): ReLU6()
        (3): Conv2d(768, 768, kernel_size=(3, 3), stride=(1, 1), padding=(1, 1), groups=768, bias=False)
        (4): BatchNorm2d(768, eps=1e-05, momentum=0.1, affine=True, track_running_stats=True)
        (5): ReLU6()
        (6): Conv2d(768, 128, kernel_size=(1, 1), stride=(1, 1), bias=False)
        (7): BatchNorm2d(128, eps=1e-05, momentum=0.1, affine=True, track_running_stats=True)
      )
    )
  )
)
2024-10-17 01:35:45,416 - block_extractor.py[28] - INFO: save pruned block block-3 (sparsity 0.2) in results/legodnn/image_classification/mobilenetv2_w2_cifar100_0-125/compressed/block-3-2.pt
2024-10-17 01:35:45,416 - block_extractor.py[29] - DEBUG: LegoDNNBlock(
  (features): ModuleDict(
    (7): ModuleDict(
      (conv): ModuleDict(
        (0): Conv2d(64, 278, kernel_size=(1, 1), stride=(1, 1), bias=False)
        (1): BatchNorm2d(278, eps=1e-05, momentum=0.1, affine=True, track_running_stats=True)
        (2): ReLU6()
        (3): Conv2d(278, 278, kernel_size=(3, 3), stride=(2, 2), padding=(1, 1), groups=278, bias=False)
        (4): BatchNorm2d(278, eps=1e-05, momentum=0.1, affine=True, track_running_stats=True)
        (5): ReLU6()
        (6): Conv2d(278, 128, kernel_size=(1, 1), stride=(1, 1), bias=False)
        (7): BatchNorm2d(128, eps=1e-05, momentum=0.1, affine=True, track_running_stats=True)
      )
    )
    (8): ModuleDict(
      (conv): ModuleDict(
        (0): Conv2d(128, 572, kernel_size=(1, 1), stride=(1, 1), bias=False)
        (1): BatchNorm2d(572, eps=1e-05, momentum=0.1, affine=True, track_running_stats=True)
        (2): ReLU6()
        (3): Conv2d(572, 572, kernel_size=(3, 3), stride=(1, 1), padding=(1, 1), groups=572, bias=False)
        (4): BatchNorm2d(572, eps=1e-05, momentum=0.1, affine=True, track_running_stats=True)
        (5): ReLU6()
        (6): Conv2d(572, 128, kernel_size=(1, 1), stride=(1, 1), bias=False)
        (7): BatchNorm2d(128, eps=1e-05, momentum=0.1, affine=True, track_running_stats=True)
      )
    )
  )
)
2024-10-17 01:35:46,196 - block_extractor.py[28] - INFO: save pruned block block-3 (sparsity 0.4) in results/legodnn/image_classification/mobilenetv2_w2_cifar100_0-125/compressed/block-3-4.pt
2024-10-17 01:35:46,196 - block_extractor.py[29] - DEBUG: LegoDNNBlock(
  (features): ModuleDict(
    (7): ModuleDict(
      (conv): ModuleDict(
        (0): Conv2d(64, 185, kernel_size=(1, 1), stride=(1, 1), bias=False)
        (1): BatchNorm2d(185, eps=1e-05, momentum=0.1, affine=True, track_running_stats=True)
        (2): ReLU6()
        (3): Conv2d(185, 185, kernel_size=(3, 3), stride=(2, 2), padding=(1, 1), groups=185, bias=False)
        (4): BatchNorm2d(185, eps=1e-05, momentum=0.1, affine=True, track_running_stats=True)
        (5): ReLU6()
        (6): Conv2d(185, 128, kernel_size=(1, 1), stride=(1, 1), bias=False)
        (7): BatchNorm2d(128, eps=1e-05, momentum=0.1, affine=True, track_running_stats=True)
      )
    )
    (8): ModuleDict(
      (conv): ModuleDict(
        (0): Conv2d(128, 396, kernel_size=(1, 1), stride=(1, 1), bias=False)
        (1): BatchNorm2d(396, eps=1e-05, momentum=0.1, affine=True, track_running_stats=True)
        (2): ReLU6()
        (3): Conv2d(396, 396, kernel_size=(3, 3), stride=(1, 1), padding=(1, 1), groups=396, bias=False)
        (4): BatchNorm2d(396, eps=1e-05, momentum=0.1, affine=True, track_running_stats=True)
        (5): ReLU6()
        (6): Conv2d(396, 128, kernel_size=(1, 1), stride=(1, 1), bias=False)
        (7): BatchNorm2d(128, eps=1e-05, momentum=0.1, affine=True, track_running_stats=True)
      )
    )
  )
)
2024-10-17 01:35:46,858 - block_extractor.py[28] - INFO: save pruned block block-3 (sparsity 0.6) in results/legodnn/image_classification/mobilenetv2_w2_cifar100_0-125/compressed/block-3-6.pt
2024-10-17 01:35:46,858 - block_extractor.py[29] - DEBUG: LegoDNNBlock(
  (features): ModuleDict(
    (7): ModuleDict(
      (conv): ModuleDict(
        (0): Conv2d(64, 103, kernel_size=(1, 1), stride=(1, 1), bias=False)
        (1): BatchNorm2d(103, eps=1e-05, momentum=0.1, affine=True, track_running_stats=True)
        (2): ReLU6()
        (3): Conv2d(103, 103, kernel_size=(3, 3), stride=(2, 2), padding=(1, 1), groups=103, bias=False)
        (4): BatchNorm2d(103, eps=1e-05, momentum=0.1, affine=True, track_running_stats=True)
        (5): ReLU6()
        (6): Conv2d(103, 128, kernel_size=(1, 1), stride=(1, 1), bias=False)
        (7): BatchNorm2d(128, eps=1e-05, momentum=0.1, affine=True, track_running_stats=True)
      )
    )
    (8): ModuleDict(
      (conv): ModuleDict(
        (0): Conv2d(128, 242, kernel_size=(1, 1), stride=(1, 1), bias=False)
        (1): BatchNorm2d(242, eps=1e-05, momentum=0.1, affine=True, track_running_stats=True)
        (2): ReLU6()
        (3): Conv2d(242, 242, kernel_size=(3, 3), stride=(1, 1), padding=(1, 1), groups=242, bias=False)
        (4): BatchNorm2d(242, eps=1e-05, momentum=0.1, affine=True, track_running_stats=True)
        (5): ReLU6()
        (6): Conv2d(242, 128, kernel_size=(1, 1), stride=(1, 1), bias=False)
        (7): BatchNorm2d(128, eps=1e-05, momentum=0.1, affine=True, track_running_stats=True)
      )
    )
  )
)
2024-10-17 01:35:47,520 - block_extractor.py[28] - INFO: save pruned block block-3 (sparsity 0.8) in results/legodnn/image_classification/mobilenetv2_w2_cifar100_0-125/compressed/block-3-8.pt
2024-10-17 01:35:47,521 - block_extractor.py[29] - DEBUG: LegoDNNBlock(
  (features): ModuleDict(
    (7): ModuleDict(
      (conv): ModuleDict(
        (0): Conv2d(64, 49, kernel_size=(1, 1), stride=(1, 1), bias=False)
        (1): BatchNorm2d(49, eps=1e-05, momentum=0.1, affine=True, track_running_stats=True)
        (2): ReLU6()
        (3): Conv2d(49, 49, kernel_size=(3, 3), stride=(2, 2), padding=(1, 1), groups=49, bias=False)
        (4): BatchNorm2d(49, eps=1e-05, momentum=0.1, affine=True, track_running_stats=True)
        (5): ReLU6()
        (6): Conv2d(49, 128, kernel_size=(1, 1), stride=(1, 1), bias=False)
        (7): BatchNorm2d(128, eps=1e-05, momentum=0.1, affine=True, track_running_stats=True)
      )
    )
    (8): ModuleDict(
      (conv): ModuleDict(
        (0): Conv2d(128, 107, kernel_size=(1, 1), stride=(1, 1), bias=False)
        (1): BatchNorm2d(107, eps=1e-05, momentum=0.1, affine=True, track_running_stats=True)
        (2): ReLU6()
        (3): Conv2d(107, 107, kernel_size=(3, 3), stride=(1, 1), padding=(1, 1), groups=107, bias=False)
        (4): BatchNorm2d(107, eps=1e-05, momentum=0.1, affine=True, track_running_stats=True)
        (5): ReLU6()
        (6): Conv2d(107, 128, kernel_size=(1, 1), stride=(1, 1), bias=False)
        (7): BatchNorm2d(128, eps=1e-05, momentum=0.1, affine=True, track_running_stats=True)
      )
    )
  )
)
2024-10-17 01:35:47,587 - block_extractor.py[28] - INFO: save pruned block block-4 (sparsity 0.0) in results/legodnn/image_classification/mobilenetv2_w2_cifar100_0-125/compressed/block-4-0.pt
2024-10-17 01:35:47,587 - block_extractor.py[29] - DEBUG: LegoDNNBlock(
  (features): ModuleDict(
    (9): ModuleDict(
      (conv): ModuleDict(
        (0): Conv2d(128, 768, kernel_size=(1, 1), stride=(1, 1), bias=False)
        (1): BatchNorm2d(768, eps=1e-05, momentum=0.1, affine=True, track_running_stats=True)
        (2): ReLU6()
        (3): Conv2d(768, 768, kernel_size=(3, 3), stride=(1, 1), padding=(1, 1), groups=768, bias=False)
        (4): BatchNorm2d(768, eps=1e-05, momentum=0.1, affine=True, track_running_stats=True)
        (5): ReLU6()
        (6): Conv2d(768, 128, kernel_size=(1, 1), stride=(1, 1), bias=False)
      )
    )
  )
)
2024-10-17 01:35:48,232 - block_extractor.py[28] - INFO: save pruned block block-4 (sparsity 0.2) in results/legodnn/image_classification/mobilenetv2_w2_cifar100_0-125/compressed/block-4-2.pt
2024-10-17 01:35:48,232 - block_extractor.py[29] - DEBUG: LegoDNNBlock(
  (features): ModuleDict(
    (9): ModuleDict(
      (conv): ModuleDict(
        (0): Conv2d(128, 570, kernel_size=(1, 1), stride=(1, 1), bias=False)
        (1): BatchNorm2d(570, eps=1e-05, momentum=0.1, affine=True, track_running_stats=True)
        (2): ReLU6()
        (3): Conv2d(570, 570, kernel_size=(3, 3), stride=(1, 1), padding=(1, 1), groups=570, bias=False)
        (4): BatchNorm2d(570, eps=1e-05, momentum=0.1, affine=True, track_running_stats=True)
        (5): ReLU6()
        (6): Conv2d(570, 128, kernel_size=(1, 1), stride=(1, 1), bias=False)
      )
    )
  )
)
2024-10-17 01:35:48,684 - block_extractor.py[28] - INFO: save pruned block block-4 (sparsity 0.4) in results/legodnn/image_classification/mobilenetv2_w2_cifar100_0-125/compressed/block-4-4.pt
2024-10-17 01:35:48,685 - block_extractor.py[29] - DEBUG: LegoDNNBlock(
  (features): ModuleDict(
    (9): ModuleDict(
      (conv): ModuleDict(
        (0): Conv2d(128, 399, kernel_size=(1, 1), stride=(1, 1), bias=False)
        (1): BatchNorm2d(399, eps=1e-05, momentum=0.1, affine=True, track_running_stats=True)
        (2): ReLU6()
        (3): Conv2d(399, 399, kernel_size=(3, 3), stride=(1, 1), padding=(1, 1), groups=399, bias=False)
        (4): BatchNorm2d(399, eps=1e-05, momentum=0.1, affine=True, track_running_stats=True)
        (5): ReLU6()
        (6): Conv2d(399, 128, kernel_size=(1, 1), stride=(1, 1), bias=False)
      )
    )
  )
)
2024-10-17 01:35:49,087 - block_extractor.py[28] - INFO: save pruned block block-4 (sparsity 0.6) in results/legodnn/image_classification/mobilenetv2_w2_cifar100_0-125/compressed/block-4-6.pt
2024-10-17 01:35:49,087 - block_extractor.py[29] - DEBUG: LegoDNNBlock(
  (features): ModuleDict(
    (9): ModuleDict(
      (conv): ModuleDict(
        (0): Conv2d(128, 233, kernel_size=(1, 1), stride=(1, 1), bias=False)
        (1): BatchNorm2d(233, eps=1e-05, momentum=0.1, affine=True, track_running_stats=True)
        (2): ReLU6()
        (3): Conv2d(233, 233, kernel_size=(3, 3), stride=(1, 1), padding=(1, 1), groups=233, bias=False)
        (4): BatchNorm2d(233, eps=1e-05, momentum=0.1, affine=True, track_running_stats=True)
        (5): ReLU6()
        (6): Conv2d(233, 128, kernel_size=(1, 1), stride=(1, 1), bias=False)
      )
    )
  )
)
2024-10-17 01:35:49,458 - block_extractor.py[28] - INFO: save pruned block block-4 (sparsity 0.8) in results/legodnn/image_classification/mobilenetv2_w2_cifar100_0-125/compressed/block-4-8.pt
2024-10-17 01:35:49,458 - block_extractor.py[29] - DEBUG: LegoDNNBlock(
  (features): ModuleDict(
    (9): ModuleDict(
      (conv): ModuleDict(
        (0): Conv2d(128, 94, kernel_size=(1, 1), stride=(1, 1), bias=False)
        (1): BatchNorm2d(94, eps=1e-05, momentum=0.1, affine=True, track_running_stats=True)
        (2): ReLU6()
        (3): Conv2d(94, 94, kernel_size=(3, 3), stride=(1, 1), padding=(1, 1), groups=94, bias=False)
        (4): BatchNorm2d(94, eps=1e-05, momentum=0.1, affine=True, track_running_stats=True)
        (5): ReLU6()
        (6): Conv2d(94, 128, kernel_size=(1, 1), stride=(1, 1), bias=False)
      )
    )
  )
)
2024-10-17 01:35:49,603 - block_extractor.py[28] - INFO: save pruned block block-5 (sparsity 0.0) in results/legodnn/image_classification/mobilenetv2_w2_cifar100_0-125/compressed/block-5-0.pt
2024-10-17 01:35:49,603 - block_extractor.py[29] - DEBUG: LegoDNNBlock(
  (features): ModuleDict(
    (10): ModuleDict(
      (conv): ModuleDict(
        (0): Conv2d(128, 768, kernel_size=(1, 1), stride=(1, 1), bias=False)
        (1): BatchNorm2d(768, eps=1e-05, momentum=0.1, affine=True, track_running_stats=True)
        (2): ReLU6()
        (3): Conv2d(768, 768, kernel_size=(3, 3), stride=(1, 1), padding=(1, 1), groups=768, bias=False)
        (4): BatchNorm2d(768, eps=1e-05, momentum=0.1, affine=True, track_running_stats=True)
        (5): ReLU6()
        (6): Conv2d(768, 128, kernel_size=(1, 1), stride=(1, 1), bias=False)
      )
    )
  )
)
2024-10-17 01:35:50,110 - block_extractor.py[28] - INFO: save pruned block block-5 (sparsity 0.2) in results/legodnn/image_classification/mobilenetv2_w2_cifar100_0-125/compressed/block-5-2.pt
2024-10-17 01:35:50,110 - block_extractor.py[29] - DEBUG: LegoDNNBlock(
  (features): ModuleDict(
    (10): ModuleDict(
      (conv): ModuleDict(
        (0): Conv2d(128, 565, kernel_size=(1, 1), stride=(1, 1), bias=False)
        (1): BatchNorm2d(565, eps=1e-05, momentum=0.1, affine=True, track_running_stats=True)
        (2): ReLU6()
        (3): Conv2d(565, 565, kernel_size=(3, 3), stride=(1, 1), padding=(1, 1), groups=565, bias=False)
        (4): BatchNorm2d(565, eps=1e-05, momentum=0.1, affine=True, track_running_stats=True)
        (5): ReLU6()
        (6): Conv2d(565, 128, kernel_size=(1, 1), stride=(1, 1), bias=False)
      )
    )
  )
)
2024-10-17 01:35:50,553 - block_extractor.py[28] - INFO: save pruned block block-5 (sparsity 0.4) in results/legodnn/image_classification/mobilenetv2_w2_cifar100_0-125/compressed/block-5-4.pt
2024-10-17 01:35:50,553 - block_extractor.py[29] - DEBUG: LegoDNNBlock(
  (features): ModuleDict(
    (10): ModuleDict(
      (conv): ModuleDict(
        (0): Conv2d(128, 394, kernel_size=(1, 1), stride=(1, 1), bias=False)
        (1): BatchNorm2d(394, eps=1e-05, momentum=0.1, affine=True, track_running_stats=True)
        (2): ReLU6()
        (3): Conv2d(394, 394, kernel_size=(3, 3), stride=(1, 1), padding=(1, 1), groups=394, bias=False)
        (4): BatchNorm2d(394, eps=1e-05, momentum=0.1, affine=True, track_running_stats=True)
        (5): ReLU6()
        (6): Conv2d(394, 128, kernel_size=(1, 1), stride=(1, 1), bias=False)
      )
    )
  )
)
2024-10-17 01:35:50,948 - block_extractor.py[28] - INFO: save pruned block block-5 (sparsity 0.6) in results/legodnn/image_classification/mobilenetv2_w2_cifar100_0-125/compressed/block-5-6.pt
2024-10-17 01:35:50,948 - block_extractor.py[29] - DEBUG: LegoDNNBlock(
  (features): ModuleDict(
    (10): ModuleDict(
      (conv): ModuleDict(
        (0): Conv2d(128, 227, kernel_size=(1, 1), stride=(1, 1), bias=False)
        (1): BatchNorm2d(227, eps=1e-05, momentum=0.1, affine=True, track_running_stats=True)
        (2): ReLU6()
        (3): Conv2d(227, 227, kernel_size=(3, 3), stride=(1, 1), padding=(1, 1), groups=227, bias=False)
        (4): BatchNorm2d(227, eps=1e-05, momentum=0.1, affine=True, track_running_stats=True)
        (5): ReLU6()
        (6): Conv2d(227, 128, kernel_size=(1, 1), stride=(1, 1), bias=False)
      )
    )
  )
)
2024-10-17 01:35:51,308 - block_extractor.py[28] - INFO: save pruned block block-5 (sparsity 0.8) in results/legodnn/image_classification/mobilenetv2_w2_cifar100_0-125/compressed/block-5-8.pt
2024-10-17 01:35:51,308 - block_extractor.py[29] - DEBUG: LegoDNNBlock(
  (features): ModuleDict(
    (10): ModuleDict(
      (conv): ModuleDict(
        (0): Conv2d(128, 88, kernel_size=(1, 1), stride=(1, 1), bias=False)
        (1): BatchNorm2d(88, eps=1e-05, momentum=0.1, affine=True, track_running_stats=True)
        (2): ReLU6()
        (3): Conv2d(88, 88, kernel_size=(3, 3), stride=(1, 1), padding=(1, 1), groups=88, bias=False)
        (4): BatchNorm2d(88, eps=1e-05, momentum=0.1, affine=True, track_running_stats=True)
        (5): ReLU6()
        (6): Conv2d(88, 128, kernel_size=(1, 1), stride=(1, 1), bias=False)
      )
    )
  )
)
2024-10-17 01:35:51,379 - block_extractor.py[28] - INFO: save pruned block block-6 (sparsity 0.0) in results/legodnn/image_classification/mobilenetv2_w2_cifar100_0-125/compressed/block-6-0.pt
2024-10-17 01:35:51,379 - block_extractor.py[29] - DEBUG: LegoDNNBlock(
  (features): ModuleDict(
    (11): ModuleDict(
      (conv): ModuleDict(
        (0): Conv2d(128, 768, kernel_size=(1, 1), stride=(1, 1), bias=False)
        (1): BatchNorm2d(768, eps=1e-05, momentum=0.1, affine=True, track_running_stats=True)
        (2): ReLU6()
        (3): Conv2d(768, 768, kernel_size=(3, 3), stride=(1, 1), padding=(1, 1), groups=768, bias=False)
        (4): BatchNorm2d(768, eps=1e-05, momentum=0.1, affine=True, track_running_stats=True)
        (5): ReLU6()
        (6): Conv2d(768, 192, kernel_size=(1, 1), stride=(1, 1), bias=False)
        (7): BatchNorm2d(192, eps=1e-05, momentum=0.1, affine=True, track_running_stats=True)
      )
    )
    (12): ModuleDict(
      (conv): ModuleDict(
        (0): Conv2d(192, 1152, kernel_size=(1, 1), stride=(1, 1), bias=False)
        (1): BatchNorm2d(1152, eps=1e-05, momentum=0.1, affine=True, track_running_stats=True)
        (2): ReLU6()
        (3): Conv2d(1152, 1152, kernel_size=(3, 3), stride=(1, 1), padding=(1, 1), groups=1152, bias=False)
        (4): BatchNorm2d(1152, eps=1e-05, momentum=0.1, affine=True, track_running_stats=True)
        (5): ReLU6()
        (6): Conv2d(1152, 192, kernel_size=(1, 1), stride=(1, 1), bias=False)
        (7): BatchNorm2d(192, eps=1e-05, momentum=0.1, affine=True, track_running_stats=True)
      )
    )
  )
)
2024-10-17 01:35:52,439 - block_extractor.py[28] - INFO: save pruned block block-6 (sparsity 0.2) in results/legodnn/image_classification/mobilenetv2_w2_cifar100_0-125/compressed/block-6-2.pt
2024-10-17 01:35:52,439 - block_extractor.py[29] - DEBUG: LegoDNNBlock(
  (features): ModuleDict(
    (11): ModuleDict(
      (conv): ModuleDict(
        (0): Conv2d(128, 538, kernel_size=(1, 1), stride=(1, 1), bias=False)
        (1): BatchNorm2d(538, eps=1e-05, momentum=0.1, affine=True, track_running_stats=True)
        (2): ReLU6()
        (3): Conv2d(538, 538, kernel_size=(3, 3), stride=(1, 1), padding=(1, 1), groups=538, bias=False)
        (4): BatchNorm2d(538, eps=1e-05, momentum=0.1, affine=True, track_running_stats=True)
        (5): ReLU6()
        (6): Conv2d(538, 192, kernel_size=(1, 1), stride=(1, 1), bias=False)
        (7): BatchNorm2d(192, eps=1e-05, momentum=0.1, affine=True, track_running_stats=True)
      )
    )
    (12): ModuleDict(
      (conv): ModuleDict(
        (0): Conv2d(192, 844, kernel_size=(1, 1), stride=(1, 1), bias=False)
        (1): BatchNorm2d(844, eps=1e-05, momentum=0.1, affine=True, track_running_stats=True)
        (2): ReLU6()
        (3): Conv2d(844, 844, kernel_size=(3, 3), stride=(1, 1), padding=(1, 1), groups=844, bias=False)
        (4): BatchNorm2d(844, eps=1e-05, momentum=0.1, affine=True, track_running_stats=True)
        (5): ReLU6()
        (6): Conv2d(844, 192, kernel_size=(1, 1), stride=(1, 1), bias=False)
        (7): BatchNorm2d(192, eps=1e-05, momentum=0.1, affine=True, track_running_stats=True)
      )
    )
  )
)
2024-10-17 01:35:53,346 - block_extractor.py[28] - INFO: save pruned block block-6 (sparsity 0.4) in results/legodnn/image_classification/mobilenetv2_w2_cifar100_0-125/compressed/block-6-4.pt
2024-10-17 01:35:53,346 - block_extractor.py[29] - DEBUG: LegoDNNBlock(
  (features): ModuleDict(
    (11): ModuleDict(
      (conv): ModuleDict(
        (0): Conv2d(128, 352, kernel_size=(1, 1), stride=(1, 1), bias=False)
        (1): BatchNorm2d(352, eps=1e-05, momentum=0.1, affine=True, track_running_stats=True)
        (2): ReLU6()
        (3): Conv2d(352, 352, kernel_size=(3, 3), stride=(1, 1), padding=(1, 1), groups=352, bias=False)
        (4): BatchNorm2d(352, eps=1e-05, momentum=0.1, affine=True, track_running_stats=True)
        (5): ReLU6()
        (6): Conv2d(352, 192, kernel_size=(1, 1), stride=(1, 1), bias=False)
        (7): BatchNorm2d(192, eps=1e-05, momentum=0.1, affine=True, track_running_stats=True)
      )
    )
    (12): ModuleDict(
      (conv): ModuleDict(
        (0): Conv2d(192, 592, kernel_size=(1, 1), stride=(1, 1), bias=False)
        (1): BatchNorm2d(592, eps=1e-05, momentum=0.1, affine=True, track_running_stats=True)
        (2): ReLU6()
        (3): Conv2d(592, 592, kernel_size=(3, 3), stride=(1, 1), padding=(1, 1), groups=592, bias=False)
        (4): BatchNorm2d(592, eps=1e-05, momentum=0.1, affine=True, track_running_stats=True)
        (5): ReLU6()
        (6): Conv2d(592, 192, kernel_size=(1, 1), stride=(1, 1), bias=False)
        (7): BatchNorm2d(192, eps=1e-05, momentum=0.1, affine=True, track_running_stats=True)
      )
    )
  )
)
2024-10-17 01:35:54,152 - block_extractor.py[28] - INFO: save pruned block block-6 (sparsity 0.6) in results/legodnn/image_classification/mobilenetv2_w2_cifar100_0-125/compressed/block-6-6.pt
2024-10-17 01:35:54,152 - block_extractor.py[29] - DEBUG: LegoDNNBlock(
  (features): ModuleDict(
    (11): ModuleDict(
      (conv): ModuleDict(
        (0): Conv2d(128, 202, kernel_size=(1, 1), stride=(1, 1), bias=False)
        (1): BatchNorm2d(202, eps=1e-05, momentum=0.1, affine=True, track_running_stats=True)
        (2): ReLU6()
        (3): Conv2d(202, 202, kernel_size=(3, 3), stride=(1, 1), padding=(1, 1), groups=202, bias=False)
        (4): BatchNorm2d(202, eps=1e-05, momentum=0.1, affine=True, track_running_stats=True)
        (5): ReLU6()
        (6): Conv2d(202, 192, kernel_size=(1, 1), stride=(1, 1), bias=False)
        (7): BatchNorm2d(192, eps=1e-05, momentum=0.1, affine=True, track_running_stats=True)
      )
    )
    (12): ModuleDict(
      (conv): ModuleDict(
        (0): Conv2d(192, 364, kernel_size=(1, 1), stride=(1, 1), bias=False)
        (1): BatchNorm2d(364, eps=1e-05, momentum=0.1, affine=True, track_running_stats=True)
        (2): ReLU6()
        (3): Conv2d(364, 364, kernel_size=(3, 3), stride=(1, 1), padding=(1, 1), groups=364, bias=False)
        (4): BatchNorm2d(364, eps=1e-05, momentum=0.1, affine=True, track_running_stats=True)
        (5): ReLU6()
        (6): Conv2d(364, 192, kernel_size=(1, 1), stride=(1, 1), bias=False)
        (7): BatchNorm2d(192, eps=1e-05, momentum=0.1, affine=True, track_running_stats=True)
      )
    )
  )
)
2024-10-17 01:35:54,910 - block_extractor.py[28] - INFO: save pruned block block-6 (sparsity 0.8) in results/legodnn/image_classification/mobilenetv2_w2_cifar100_0-125/compressed/block-6-8.pt
2024-10-17 01:35:54,910 - block_extractor.py[29] - DEBUG: LegoDNNBlock(
  (features): ModuleDict(
    (11): ModuleDict(
      (conv): ModuleDict(
        (0): Conv2d(128, 79, kernel_size=(1, 1), stride=(1, 1), bias=False)
        (1): BatchNorm2d(79, eps=1e-05, momentum=0.1, affine=True, track_running_stats=True)
        (2): ReLU6()
        (3): Conv2d(79, 79, kernel_size=(3, 3), stride=(1, 1), padding=(1, 1), groups=79, bias=False)
        (4): BatchNorm2d(79, eps=1e-05, momentum=0.1, affine=True, track_running_stats=True)
        (5): ReLU6()
        (6): Conv2d(79, 192, kernel_size=(1, 1), stride=(1, 1), bias=False)
        (7): BatchNorm2d(192, eps=1e-05, momentum=0.1, affine=True, track_running_stats=True)
      )
    )
    (12): ModuleDict(
      (conv): ModuleDict(
        (0): Conv2d(192, 142, kernel_size=(1, 1), stride=(1, 1), bias=False)
        (1): BatchNorm2d(142, eps=1e-05, momentum=0.1, affine=True, track_running_stats=True)
        (2): ReLU6()
        (3): Conv2d(142, 142, kernel_size=(3, 3), stride=(1, 1), padding=(1, 1), groups=142, bias=False)
        (4): BatchNorm2d(142, eps=1e-05, momentum=0.1, affine=True, track_running_stats=True)
        (5): ReLU6()
        (6): Conv2d(142, 192, kernel_size=(1, 1), stride=(1, 1), bias=False)
        (7): BatchNorm2d(192, eps=1e-05, momentum=0.1, affine=True, track_running_stats=True)
      )
    )
  )
)
2024-10-17 01:35:54,976 - block_extractor.py[28] - INFO: save pruned block block-7 (sparsity 0.0) in results/legodnn/image_classification/mobilenetv2_w2_cifar100_0-125/compressed/block-7-0.pt
2024-10-17 01:35:54,976 - block_extractor.py[29] - DEBUG: LegoDNNBlock(
  (features): ModuleDict(
    (13): ModuleDict(
      (conv): ModuleDict(
        (0): Conv2d(192, 1152, kernel_size=(1, 1), stride=(1, 1), bias=False)
        (1): BatchNorm2d(1152, eps=1e-05, momentum=0.1, affine=True, track_running_stats=True)
        (2): ReLU6()
        (3): Conv2d(1152, 1152, kernel_size=(3, 3), stride=(1, 1), padding=(1, 1), groups=1152, bias=False)
        (4): BatchNorm2d(1152, eps=1e-05, momentum=0.1, affine=True, track_running_stats=True)
        (5): ReLU6()
        (6): Conv2d(1152, 192, kernel_size=(1, 1), stride=(1, 1), bias=False)
      )
    )
  )
)
2024-10-17 01:35:55,658 - block_extractor.py[28] - INFO: save pruned block block-7 (sparsity 0.2) in results/legodnn/image_classification/mobilenetv2_w2_cifar100_0-125/compressed/block-7-2.pt
2024-10-17 01:35:55,658 - block_extractor.py[29] - DEBUG: LegoDNNBlock(
  (features): ModuleDict(
    (13): ModuleDict(
      (conv): ModuleDict(
        (0): Conv2d(192, 854, kernel_size=(1, 1), stride=(1, 1), bias=False)
        (1): BatchNorm2d(854, eps=1e-05, momentum=0.1, affine=True, track_running_stats=True)
        (2): ReLU6()
        (3): Conv2d(854, 854, kernel_size=(3, 3), stride=(1, 1), padding=(1, 1), groups=854, bias=False)
        (4): BatchNorm2d(854, eps=1e-05, momentum=0.1, affine=True, track_running_stats=True)
        (5): ReLU6()
        (6): Conv2d(854, 192, kernel_size=(1, 1), stride=(1, 1), bias=False)
      )
    )
  )
)
2024-10-17 01:35:56,238 - block_extractor.py[28] - INFO: save pruned block block-7 (sparsity 0.4) in results/legodnn/image_classification/mobilenetv2_w2_cifar100_0-125/compressed/block-7-4.pt
2024-10-17 01:35:56,239 - block_extractor.py[29] - DEBUG: LegoDNNBlock(
  (features): ModuleDict(
    (13): ModuleDict(
      (conv): ModuleDict(
        (0): Conv2d(192, 586, kernel_size=(1, 1), stride=(1, 1), bias=False)
        (1): BatchNorm2d(586, eps=1e-05, momentum=0.1, affine=True, track_running_stats=True)
        (2): ReLU6()
        (3): Conv2d(586, 586, kernel_size=(3, 3), stride=(1, 1), padding=(1, 1), groups=586, bias=False)
        (4): BatchNorm2d(586, eps=1e-05, momentum=0.1, affine=True, track_running_stats=True)
        (5): ReLU6()
        (6): Conv2d(586, 192, kernel_size=(1, 1), stride=(1, 1), bias=False)
      )
    )
  )
)
2024-10-17 01:35:56,728 - block_extractor.py[28] - INFO: save pruned block block-7 (sparsity 0.6) in results/legodnn/image_classification/mobilenetv2_w2_cifar100_0-125/compressed/block-7-6.pt
2024-10-17 01:35:56,729 - block_extractor.py[29] - DEBUG: LegoDNNBlock(
  (features): ModuleDict(
    (13): ModuleDict(
      (conv): ModuleDict(
        (0): Conv2d(192, 359, kernel_size=(1, 1), stride=(1, 1), bias=False)
        (1): BatchNorm2d(359, eps=1e-05, momentum=0.1, affine=True, track_running_stats=True)
        (2): ReLU6()
        (3): Conv2d(359, 359, kernel_size=(3, 3), stride=(1, 1), padding=(1, 1), groups=359, bias=False)
        (4): BatchNorm2d(359, eps=1e-05, momentum=0.1, affine=True, track_running_stats=True)
        (5): ReLU6()
        (6): Conv2d(359, 192, kernel_size=(1, 1), stride=(1, 1), bias=False)
      )
    )
  )
)
2024-10-17 01:35:57,145 - block_extractor.py[28] - INFO: save pruned block block-7 (sparsity 0.8) in results/legodnn/image_classification/mobilenetv2_w2_cifar100_0-125/compressed/block-7-8.pt
2024-10-17 01:35:57,145 - block_extractor.py[29] - DEBUG: LegoDNNBlock(
  (features): ModuleDict(
    (13): ModuleDict(
      (conv): ModuleDict(
        (0): Conv2d(192, 155, kernel_size=(1, 1), stride=(1, 1), bias=False)
        (1): BatchNorm2d(155, eps=1e-05, momentum=0.1, affine=True, track_running_stats=True)
        (2): ReLU6()
        (3): Conv2d(155, 155, kernel_size=(3, 3), stride=(1, 1), padding=(1, 1), groups=155, bias=False)
        (4): BatchNorm2d(155, eps=1e-05, momentum=0.1, affine=True, track_running_stats=True)
        (5): ReLU6()
        (6): Conv2d(155, 192, kernel_size=(1, 1), stride=(1, 1), bias=False)
      )
    )
  )
)
2024-10-17 01:35:57,227 - block_extractor.py[28] - INFO: save pruned block block-8 (sparsity 0.0) in results/legodnn/image_classification/mobilenetv2_w2_cifar100_0-125/compressed/block-8-0.pt
2024-10-17 01:35:57,227 - block_extractor.py[29] - DEBUG: LegoDNNBlock(
  (features): ModuleDict(
    (14): ModuleDict(
      (conv): ModuleDict(
        (0): Conv2d(192, 1152, kernel_size=(1, 1), stride=(1, 1), bias=False)
        (1): BatchNorm2d(1152, eps=1e-05, momentum=0.1, affine=True, track_running_stats=True)
        (2): ReLU6()
        (3): Conv2d(1152, 1152, kernel_size=(3, 3), stride=(2, 2), padding=(1, 1), groups=1152, bias=False)
        (4): BatchNorm2d(1152, eps=1e-05, momentum=0.1, affine=True, track_running_stats=True)
        (5): ReLU6()
        (6): Conv2d(1152, 320, kernel_size=(1, 1), stride=(1, 1), bias=False)
        (7): BatchNorm2d(320, eps=1e-05, momentum=0.1, affine=True, track_running_stats=True)
      )
    )
    (15): ModuleDict(
      (conv): ModuleDict(
        (0): Conv2d(320, 1920, kernel_size=(1, 1), stride=(1, 1), bias=False)
        (1): BatchNorm2d(1920, eps=1e-05, momentum=0.1, affine=True, track_running_stats=True)
        (2): ReLU6()
        (3): Conv2d(1920, 1920, kernel_size=(3, 3), stride=(1, 1), padding=(1, 1), groups=1920, bias=False)
        (4): BatchNorm2d(1920, eps=1e-05, momentum=0.1, affine=True, track_running_stats=True)
        (5): ReLU6()
        (6): Conv2d(1920, 320, kernel_size=(1, 1), stride=(1, 1), bias=False)
        (7): BatchNorm2d(320, eps=1e-05, momentum=0.1, affine=True, track_running_stats=True)
      )
    )
  )
)
2024-10-17 01:35:59,033 - block_extractor.py[28] - INFO: save pruned block block-8 (sparsity 0.2) in results/legodnn/image_classification/mobilenetv2_w2_cifar100_0-125/compressed/block-8-2.pt
2024-10-17 01:35:59,033 - block_extractor.py[29] - DEBUG: LegoDNNBlock(
  (features): ModuleDict(
    (14): ModuleDict(
      (conv): ModuleDict(
        (0): Conv2d(192, 904, kernel_size=(1, 1), stride=(1, 1), bias=False)
        (1): BatchNorm2d(904, eps=1e-05, momentum=0.1, affine=True, track_running_stats=True)
        (2): ReLU6()
        (3): Conv2d(904, 904, kernel_size=(3, 3), stride=(2, 2), padding=(1, 1), groups=904, bias=False)
        (4): BatchNorm2d(904, eps=1e-05, momentum=0.1, affine=True, track_running_stats=True)
        (5): ReLU6()
        (6): Conv2d(904, 320, kernel_size=(1, 1), stride=(1, 1), bias=False)
        (7): BatchNorm2d(320, eps=1e-05, momentum=0.1, affine=True, track_running_stats=True)
      )
    )
    (15): ModuleDict(
      (conv): ModuleDict(
        (0): Conv2d(320, 1398, kernel_size=(1, 1), stride=(1, 1), bias=False)
        (1): BatchNorm2d(1398, eps=1e-05, momentum=0.1, affine=True, track_running_stats=True)
        (2): ReLU6()
        (3): Conv2d(1398, 1398, kernel_size=(3, 3), stride=(1, 1), padding=(1, 1), groups=1398, bias=False)
        (4): BatchNorm2d(1398, eps=1e-05, momentum=0.1, affine=True, track_running_stats=True)
        (5): ReLU6()
        (6): Conv2d(1398, 320, kernel_size=(1, 1), stride=(1, 1), bias=False)
        (7): BatchNorm2d(320, eps=1e-05, momentum=0.1, affine=True, track_running_stats=True)
      )
    )
  )
)
2024-10-17 01:36:00,475 - block_extractor.py[28] - INFO: save pruned block block-8 (sparsity 0.4) in results/legodnn/image_classification/mobilenetv2_w2_cifar100_0-125/compressed/block-8-4.pt
2024-10-17 01:36:00,475 - block_extractor.py[29] - DEBUG: LegoDNNBlock(
  (features): ModuleDict(
    (14): ModuleDict(
      (conv): ModuleDict(
        (0): Conv2d(192, 657, kernel_size=(1, 1), stride=(1, 1), bias=False)
        (1): BatchNorm2d(657, eps=1e-05, momentum=0.1, affine=True, track_running_stats=True)
        (2): ReLU6()
        (3): Conv2d(657, 657, kernel_size=(3, 3), stride=(2, 2), padding=(1, 1), groups=657, bias=False)
        (4): BatchNorm2d(657, eps=1e-05, momentum=0.1, affine=True, track_running_stats=True)
        (5): ReLU6()
        (6): Conv2d(657, 320, kernel_size=(1, 1), stride=(1, 1), bias=False)
        (7): BatchNorm2d(320, eps=1e-05, momentum=0.1, affine=True, track_running_stats=True)
      )
    )
    (15): ModuleDict(
      (conv): ModuleDict(
        (0): Conv2d(320, 937, kernel_size=(1, 1), stride=(1, 1), bias=False)
        (1): BatchNorm2d(937, eps=1e-05, momentum=0.1, affine=True, track_running_stats=True)
        (2): ReLU6()
        (3): Conv2d(937, 937, kernel_size=(3, 3), stride=(1, 1), padding=(1, 1), groups=937, bias=False)
        (4): BatchNorm2d(937, eps=1e-05, momentum=0.1, affine=True, track_running_stats=True)
        (5): ReLU6()
        (6): Conv2d(937, 320, kernel_size=(1, 1), stride=(1, 1), bias=False)
        (7): BatchNorm2d(320, eps=1e-05, momentum=0.1, affine=True, track_running_stats=True)
      )
    )
  )
)
2024-10-17 01:36:01,710 - block_extractor.py[28] - INFO: save pruned block block-8 (sparsity 0.6) in results/legodnn/image_classification/mobilenetv2_w2_cifar100_0-125/compressed/block-8-6.pt
2024-10-17 01:36:01,710 - block_extractor.py[29] - DEBUG: LegoDNNBlock(
  (features): ModuleDict(
    (14): ModuleDict(
      (conv): ModuleDict(
        (0): Conv2d(192, 422, kernel_size=(1, 1), stride=(1, 1), bias=False)
        (1): BatchNorm2d(422, eps=1e-05, momentum=0.1, affine=True, track_running_stats=True)
        (2): ReLU6()
        (3): Conv2d(422, 422, kernel_size=(3, 3), stride=(2, 2), padding=(1, 1), groups=422, bias=False)
        (4): BatchNorm2d(422, eps=1e-05, momentum=0.1, affine=True, track_running_stats=True)
        (5): ReLU6()
        (6): Conv2d(422, 320, kernel_size=(1, 1), stride=(1, 1), bias=False)
        (7): BatchNorm2d(320, eps=1e-05, momentum=0.1, affine=True, track_running_stats=True)
      )
    )
    (15): ModuleDict(
      (conv): ModuleDict(
        (0): Conv2d(320, 576, kernel_size=(1, 1), stride=(1, 1), bias=False)
        (1): BatchNorm2d(576, eps=1e-05, momentum=0.1, affine=True, track_running_stats=True)
        (2): ReLU6()
        (3): Conv2d(576, 576, kernel_size=(3, 3), stride=(1, 1), padding=(1, 1), groups=576, bias=False)
        (4): BatchNorm2d(576, eps=1e-05, momentum=0.1, affine=True, track_running_stats=True)
        (5): ReLU6()
        (6): Conv2d(576, 320, kernel_size=(1, 1), stride=(1, 1), bias=False)
        (7): BatchNorm2d(320, eps=1e-05, momentum=0.1, affine=True, track_running_stats=True)
      )
    )
  )
)
2024-10-17 01:36:02,546 - block_extractor.py[28] - INFO: save pruned block block-8 (sparsity 0.8) in results/legodnn/image_classification/mobilenetv2_w2_cifar100_0-125/compressed/block-8-8.pt
2024-10-17 01:36:02,546 - block_extractor.py[29] - DEBUG: LegoDNNBlock(
  (features): ModuleDict(
    (14): ModuleDict(
      (conv): ModuleDict(
        (0): Conv2d(192, 219, kernel_size=(1, 1), stride=(1, 1), bias=False)
        (1): BatchNorm2d(219, eps=1e-05, momentum=0.1, affine=True, track_running_stats=True)
        (2): ReLU6()
        (3): Conv2d(219, 219, kernel_size=(3, 3), stride=(2, 2), padding=(1, 1), groups=219, bias=False)
        (4): BatchNorm2d(219, eps=1e-05, momentum=0.1, affine=True, track_running_stats=True)
        (5): ReLU6()
        (6): Conv2d(219, 320, kernel_size=(1, 1), stride=(1, 1), bias=False)
        (7): BatchNorm2d(320, eps=1e-05, momentum=0.1, affine=True, track_running_stats=True)
      )
    )
    (15): ModuleDict(
      (conv): ModuleDict(
        (0): Conv2d(320, 227, kernel_size=(1, 1), stride=(1, 1), bias=False)
        (1): BatchNorm2d(227, eps=1e-05, momentum=0.1, affine=True, track_running_stats=True)
        (2): ReLU6()
        (3): Conv2d(227, 227, kernel_size=(3, 3), stride=(1, 1), padding=(1, 1), groups=227, bias=False)
        (4): BatchNorm2d(227, eps=1e-05, momentum=0.1, affine=True, track_running_stats=True)
        (5): ReLU6()
        (6): Conv2d(227, 320, kernel_size=(1, 1), stride=(1, 1), bias=False)
        (7): BatchNorm2d(320, eps=1e-05, momentum=0.1, affine=True, track_running_stats=True)
      )
    )
  )
)
2024-10-17 01:36:02,619 - block_extractor.py[28] - INFO: save pruned block block-9 (sparsity 0.0) in results/legodnn/image_classification/mobilenetv2_w2_cifar100_0-125/compressed/block-9-0.pt
2024-10-17 01:36:02,619 - block_extractor.py[29] - DEBUG: LegoDNNBlock(
  (features): ModuleDict(
    (16): ModuleDict(
      (conv): ModuleDict(
        (0): Conv2d(320, 1920, kernel_size=(1, 1), stride=(1, 1), bias=False)
        (1): BatchNorm2d(1920, eps=1e-05, momentum=0.1, affine=True, track_running_stats=True)
        (2): ReLU6()
        (3): Conv2d(1920, 1920, kernel_size=(3, 3), stride=(1, 1), padding=(1, 1), groups=1920, bias=False)
        (4): BatchNorm2d(1920, eps=1e-05, momentum=0.1, affine=True, track_running_stats=True)
        (5): ReLU6()
        (6): Conv2d(1920, 320, kernel_size=(1, 1), stride=(1, 1), bias=False)
      )
    )
  )
)
2024-10-17 01:36:03,843 - block_extractor.py[28] - INFO: save pruned block block-9 (sparsity 0.2) in results/legodnn/image_classification/mobilenetv2_w2_cifar100_0-125/compressed/block-9-2.pt
2024-10-17 01:36:03,843 - block_extractor.py[29] - DEBUG: LegoDNNBlock(
  (features): ModuleDict(
    (16): ModuleDict(
      (conv): ModuleDict(
        (0): Conv2d(320, 1457, kernel_size=(1, 1), stride=(1, 1), bias=False)
        (1): BatchNorm2d(1457, eps=1e-05, momentum=0.1, affine=True, track_running_stats=True)
        (2): ReLU6()
        (3): Conv2d(1457, 1457, kernel_size=(3, 3), stride=(1, 1), padding=(1, 1), groups=1457, bias=False)
        (4): BatchNorm2d(1457, eps=1e-05, momentum=0.1, affine=True, track_running_stats=True)
        (5): ReLU6()
        (6): Conv2d(1457, 320, kernel_size=(1, 1), stride=(1, 1), bias=False)
      )
    )
  )
)
2024-10-17 01:36:04,769 - block_extractor.py[28] - INFO: save pruned block block-9 (sparsity 0.4) in results/legodnn/image_classification/mobilenetv2_w2_cifar100_0-125/compressed/block-9-4.pt
2024-10-17 01:36:04,769 - block_extractor.py[29] - DEBUG: LegoDNNBlock(
  (features): ModuleDict(
    (16): ModuleDict(
      (conv): ModuleDict(
        (0): Conv2d(320, 942, kernel_size=(1, 1), stride=(1, 1), bias=False)
        (1): BatchNorm2d(942, eps=1e-05, momentum=0.1, affine=True, track_running_stats=True)
        (2): ReLU6()
        (3): Conv2d(942, 942, kernel_size=(3, 3), stride=(1, 1), padding=(1, 1), groups=942, bias=False)
        (4): BatchNorm2d(942, eps=1e-05, momentum=0.1, affine=True, track_running_stats=True)
        (5): ReLU6()
        (6): Conv2d(942, 320, kernel_size=(1, 1), stride=(1, 1), bias=False)
      )
    )
  )
)
2024-10-17 01:36:05,478 - block_extractor.py[28] - INFO: save pruned block block-9 (sparsity 0.6) in results/legodnn/image_classification/mobilenetv2_w2_cifar100_0-125/compressed/block-9-6.pt
2024-10-17 01:36:05,478 - block_extractor.py[29] - DEBUG: LegoDNNBlock(
  (features): ModuleDict(
    (16): ModuleDict(
      (conv): ModuleDict(
        (0): Conv2d(320, 559, kernel_size=(1, 1), stride=(1, 1), bias=False)
        (1): BatchNorm2d(559, eps=1e-05, momentum=0.1, affine=True, track_running_stats=True)
        (2): ReLU6()
        (3): Conv2d(559, 559, kernel_size=(3, 3), stride=(1, 1), padding=(1, 1), groups=559, bias=False)
        (4): BatchNorm2d(559, eps=1e-05, momentum=0.1, affine=True, track_running_stats=True)
        (5): ReLU6()
        (6): Conv2d(559, 320, kernel_size=(1, 1), stride=(1, 1), bias=False)
      )
    )
  )
)
2024-10-17 01:36:05,984 - block_extractor.py[28] - INFO: save pruned block block-9 (sparsity 0.8) in results/legodnn/image_classification/mobilenetv2_w2_cifar100_0-125/compressed/block-9-8.pt
2024-10-17 01:36:05,984 - block_extractor.py[29] - DEBUG: LegoDNNBlock(
  (features): ModuleDict(
    (16): ModuleDict(
      (conv): ModuleDict(
        (0): Conv2d(320, 214, kernel_size=(1, 1), stride=(1, 1), bias=False)
        (1): BatchNorm2d(214, eps=1e-05, momentum=0.1, affine=True, track_running_stats=True)
        (2): ReLU6()
        (3): Conv2d(214, 214, kernel_size=(3, 3), stride=(1, 1), padding=(1, 1), groups=214, bias=False)
        (4): BatchNorm2d(214, eps=1e-05, momentum=0.1, affine=True, track_running_stats=True)
        (5): ReLU6()
        (6): Conv2d(214, 320, kernel_size=(1, 1), stride=(1, 1), bias=False)
      )
    )
  )
)
2024-10-17 01:36:06,076 - block_extractor.py[28] - INFO: save pruned block block-10 (sparsity 0.0) in results/legodnn/image_classification/mobilenetv2_w2_cifar100_0-125/compressed/block-10-0.pt
2024-10-17 01:36:06,076 - block_extractor.py[29] - DEBUG: LegoDNNBlock(
  (features): ModuleDict(
    (17): ModuleDict(
      (conv): ModuleDict(
        (0): Conv2d(320, 1920, kernel_size=(1, 1), stride=(1, 1), bias=False)
        (1): BatchNorm2d(1920, eps=1e-05, momentum=0.1, affine=True, track_running_stats=True)
        (2): ReLU6()
        (3): Conv2d(1920, 1920, kernel_size=(3, 3), stride=(1, 1), padding=(1, 1), groups=1920, bias=False)
        (4): BatchNorm2d(1920, eps=1e-05, momentum=0.1, affine=True, track_running_stats=True)
        (5): ReLU6()
        (6): Conv2d(1920, 640, kernel_size=(1, 1), stride=(1, 1), bias=False)
        (7): BatchNorm2d(640, eps=1e-05, momentum=0.1, affine=True, track_running_stats=True)
      )
    )
  )
  (conv): ModuleDict(
    (0): Conv2d(640, 2560, kernel_size=(1, 1), stride=(1, 1), bias=False)
  )
)
2024-10-17 01:36:07,411 - block_extractor.py[28] - INFO: save pruned block block-10 (sparsity 0.2) in results/legodnn/image_classification/mobilenetv2_w2_cifar100_0-125/compressed/block-10-2.pt
2024-10-17 01:36:07,411 - block_extractor.py[29] - DEBUG: LegoDNNBlock(
  (features): ModuleDict(
    (17): ModuleDict(
      (conv): ModuleDict(
        (0): Conv2d(320, 1474, kernel_size=(1, 1), stride=(1, 1), bias=False)
        (1): BatchNorm2d(1474, eps=1e-05, momentum=0.1, affine=True, track_running_stats=True)
        (2): ReLU6()
        (3): Conv2d(1474, 1474, kernel_size=(3, 3), stride=(1, 1), padding=(1, 1), groups=1474, bias=False)
        (4): BatchNorm2d(1474, eps=1e-05, momentum=0.1, affine=True, track_running_stats=True)
        (5): ReLU6()
        (6): Conv2d(1474, 512, kernel_size=(1, 1), stride=(1, 1), bias=False)
        (7): BatchNorm2d(512, eps=1e-05, momentum=0.1, affine=True, track_running_stats=True)
      )
    )
  )
  (conv): ModuleDict(
    (0): Conv2d(512, 2560, kernel_size=(1, 1), stride=(1, 1), bias=False)
  )
)
2024-10-17 01:36:08,595 - block_extractor.py[28] - INFO: save pruned block block-10 (sparsity 0.4) in results/legodnn/image_classification/mobilenetv2_w2_cifar100_0-125/compressed/block-10-4.pt
2024-10-17 01:36:08,595 - block_extractor.py[29] - DEBUG: LegoDNNBlock(
  (features): ModuleDict(
    (17): ModuleDict(
      (conv): ModuleDict(
        (0): Conv2d(320, 1050, kernel_size=(1, 1), stride=(1, 1), bias=False)
        (1): BatchNorm2d(1050, eps=1e-05, momentum=0.1, affine=True, track_running_stats=True)
        (2): ReLU6()
        (3): Conv2d(1050, 1050, kernel_size=(3, 3), stride=(1, 1), padding=(1, 1), groups=1050, bias=False)
        (4): BatchNorm2d(1050, eps=1e-05, momentum=0.1, affine=True, track_running_stats=True)
        (5): ReLU6()
        (6): Conv2d(1050, 384, kernel_size=(1, 1), stride=(1, 1), bias=False)
        (7): BatchNorm2d(384, eps=1e-05, momentum=0.1, affine=True, track_running_stats=True)
      )
    )
  )
  (conv): ModuleDict(
    (0): Conv2d(384, 2560, kernel_size=(1, 1), stride=(1, 1), bias=False)
  )
)
2024-10-17 01:36:09,416 - block_extractor.py[28] - INFO: save pruned block block-10 (sparsity 0.6) in results/legodnn/image_classification/mobilenetv2_w2_cifar100_0-125/compressed/block-10-6.pt
2024-10-17 01:36:09,417 - block_extractor.py[29] - DEBUG: LegoDNNBlock(
  (features): ModuleDict(
    (17): ModuleDict(
      (conv): ModuleDict(
        (0): Conv2d(320, 597, kernel_size=(1, 1), stride=(1, 1), bias=False)
        (1): BatchNorm2d(597, eps=1e-05, momentum=0.1, affine=True, track_running_stats=True)
        (2): ReLU6()
        (3): Conv2d(597, 597, kernel_size=(3, 3), stride=(1, 1), padding=(1, 1), groups=597, bias=False)
        (4): BatchNorm2d(597, eps=1e-05, momentum=0.1, affine=True, track_running_stats=True)
        (5): ReLU6()
        (6): Conv2d(597, 256, kernel_size=(1, 1), stride=(1, 1), bias=False)
        (7): BatchNorm2d(256, eps=1e-05, momentum=0.1, affine=True, track_running_stats=True)
      )
    )
  )
  (conv): ModuleDict(
    (0): Conv2d(256, 2560, kernel_size=(1, 1), stride=(1, 1), bias=False)
  )
)
2024-10-17 01:36:10,013 - block_extractor.py[28] - INFO: save pruned block block-10 (sparsity 0.8) in results/legodnn/image_classification/mobilenetv2_w2_cifar100_0-125/compressed/block-10-8.pt
2024-10-17 01:36:10,013 - block_extractor.py[29] - DEBUG: LegoDNNBlock(
  (features): ModuleDict(
    (17): ModuleDict(
      (conv): ModuleDict(
        (0): Conv2d(320, 221, kernel_size=(1, 1), stride=(1, 1), bias=False)
        (1): BatchNorm2d(221, eps=1e-05, momentum=0.1, affine=True, track_running_stats=True)
        (2): ReLU6()
        (3): Conv2d(221, 221, kernel_size=(3, 3), stride=(1, 1), padding=(1, 1), groups=221, bias=False)
        (4): BatchNorm2d(221, eps=1e-05, momentum=0.1, affine=True, track_running_stats=True)
        (5): ReLU6()
        (6): Conv2d(221, 128, kernel_size=(1, 1), stride=(1, 1), bias=False)
        (7): BatchNorm2d(128, eps=1e-05, momentum=0.1, affine=True, track_running_stats=True)
      )
    )
  )
  (conv): ModuleDict(
    (0): Conv2d(128, 2560, kernel_size=(1, 1), stride=(1, 1), bias=False)
  )
)
2024-10-17 01:36:12,468 - block_trainer.py[183] - INFO: start block training...
2024-10-17 01:39:17,957 - block_trainer.py[357] - INFO: epoch 0 (185.489609s, 55 blocks still need training), blocks loss: 
+---------+------------+------------+------------+------------+------------+
|         |    0.0     |    0.2     |    0.4     |    0.6     |    0.8     |
…
